…
.shape[2] * X.shape[3]\n","    print(f\"Shape of input: {input_shape}\")\n","    num_class = len(y.unique())\n","    print(f\"num of class: {num_class}\")\n","    break"]},{"cell_type":"code","execution_count":5,"metadata":{"colab":{"base_uri":"https://localhost:8080/"},"id":"RN-g3QpOSp7n","outputId":"afc140e8-2e39-450b-aa4a-10ab9ead9729","executionInfo":{"status":"ok","timestamp":1699844750862,"user_tz":-540,"elapsed":7,"user":{"displayName":"박상은","userId":"09056091970342927219"}}},"outputs":[{"output_type":"stream","name":"stdout","text":["Autoencoder(\n","  (encoder): Sequential(\n","    (0): Linear(in_features=784, out_features=512, bias=True)\n","    (1): ELU(alpha=1.0)\n","    (2): BatchNorm1d(512, eps=1e-05, momentum=0.1, affine=True, track_running_stats=True)\n","    (3): Dropout(p=0.3, inplace=False)\n","    (4): Linear(in_features=512, out_features=256, bias=True)\n","    (5): ELU(alpha=1.0)\n","    (6): BatchNorm1d(256, eps=1e-05, momentum=0.1, affine=True, track_running_stats=True)\n","    (7): Dropout(p=0.3, inplace=False)\n","    (8): Linear(in_features=256, out_features=128, bias=True)\n","    (9): ELU(alpha=1.0)\n","    (10): BatchNorm1d(128, eps=1e-05, momentum=0.1, affine=True, track_running_stats=True)\n","    (11): Dropout(p=0.3, inplace=False)\n","    (12): Linear(in_features=128, out_features=64, bias=True)\n","    (13): ELU(alpha=1.0)\n","    (14): BatchNorm1d(64, eps=1e-05, momentum=0.1, affine=True, track_running_stats=True)\n","    (15): Dropout(p=0.3, inplace=False)\n","    (16): Linear(in_features=64, out_features=32, bias=True)\n","    (17): ELU(alpha=1.0)\n","    (18): BatchNorm1d(32, eps=1e-05, momentum=0.1, affine=True, track_running_stats=True)\n","    (19): Dropout(p=0.3, inplace=False)\n","    (20): Linear(in_features=32, out_features=16, bias=True)\n","  )\n","  (decoder): Sequential(\n","    (0): Linear(in_features=16, out_features=32, bias=True)\n","    (1): ELU(alpha=1.0)\n","    (2): BatchNorm1d(32, eps=1e-05, momentum=0.1, affine=True, track_running_stats=True)\n","    (3): Linear(in_features=32, out_features=64, bias=True)\n","    (4): ELU(alpha=1.0)\n","    (5): BatchNorm1d(64, eps=1e-05, momentum=0.1, affine=True, track_running_stats=True)\n","    (6): Linear(in_features=64, out_features=128, bias=True)\n","    (7): ELU(alpha=1.0)\n","    (8): BatchNorm1d(128, eps=1e-05, momentum=0.1, affine=True, track_running_stats=True)\n","    (9): Linear(in_features=128, out_features=256, bias=True)\n","    (10): ELU(alpha=1.0)\n","    (11): BatchNorm1d(256, eps=1e-05, momentum=0.1, affine=True, track_running_stats=True)\n","    (12): Linear(in_features=256, out_features=512, bias=True)\n","    (13): ELU(alpha=1.0)\n","    (14): BatchNorm1d(512, eps=1e-05, momentum=0.1, affine=True, track_running_stats=True)\n","    (15): Linear(in_features=512, out_features=784, bias=True)\n","    (16): Sigmoid()\n","  )\n",")\n"]}],"source":["# AutoEncoder 모델을 정의합니다.\n","class Autoencoder(nn.Module):\n","    def __init__(self, dropout_rate=0.3):\n","        super().__init__()\n","        self.encoder = nn.Sequential(\n","            nn.Linear(input_shape,ENCODER_1),\n","            nn.ELU(),\n","            nn.BatchNorm1d(ENCODER_1),\n"
…
